{"keras_version": "2.2.2", "backend": "tensorflow", "config": {"name": "ResNet50", "output_layers": [["fc_final", 0, 0]], "input_layers": [["input_1", 0, 0]], "layers": [{"name": "input_1", "config": {"name": "input_1", "batch_input_shape": [null, 32, 32, 3], "sparse": false, "dtype": "float32"}, "class_name": "InputLayer", "inbound_nodes": []}, {"name": "conv0_1", "config": {"bias_constraint": null, "name": "conv0_1", "padding": "same", "data_format": "channels_last", "strides": [1, 1], "filters": 32, "trainable": true, "bias_regularizer": null, "kernel_initializer": {"config": {"scale": 1.0, "distribution": "normal", "seed": null, "mode": "fan_avg"}, "class_name": "VarianceScaling"}, "use_bias": true, "activation": "linear", "kernel_size": [3, 3], "dilation_rate": [1, 1], "activity_regularizer": null, "kernel_regularizer": {"config": {"l2": 0.009999999776482582, "l1": 0.0}, "class_name": "L1L2"}, "bias_initializer": {"config": {}, "class_name": "Zeros"}, "kernel_constraint": null}, "class_name": "Conv2D", "inbound_nodes": [[["input_1", 0, 0, {}]]]}, {"name": "batch_normalization_1", "config": {"name": "batch_normalization_1", "epsilon": 0.001, "moving_mean_initializer": {"config": {}, "class_name": "Zeros"}, "momentum": 0.99, "beta_constraint": null, "gamma_regularizer": null, "gamma_constraint": null, "trainable": true, "beta_regularizer": null, "axis": 3, "gamma_initializer": {"config": {}, "class_name": "Ones"}, "moving_variance_initializer": {"config": {}, "class_name": "Ones"}, "center": true, "scale": true, "beta_initializer": {"config": {}, "class_name": "Zeros"}}, "class_name": "BatchNormalization", "inbound_nodes": [[["conv0_1", 0, 0, {}]]]}, {"name": "activation_1", "config": {"trainable": true, "name": "activation_1", "activation": "relu"}, "class_name": "Activation", "inbound_nodes": [[["batch_normalization_1", 0, 0, {}]]]}, {"name": "conv0_2", "config": {"bias_constraint": null, "name": "conv0_2", "padding": "same", "data_format": "channels_last", "strides": [1, 1], "filters": 32, "trainable": true, "bias_regularizer": null, "kernel_initializer": {"config": {"scale": 1.0, "distribution": "normal", "seed": null, "mode": "fan_avg"}, "class_name": "VarianceScaling"}, "use_bias": true, "activation": "linear", "kernel_size": [3, 3], "dilation_rate": [1, 1], "activity_regularizer": null, "kernel_regularizer": {"config": {"l2": 0.009999999776482582, "l1": 0.0}, "class_name": "L1L2"}, "bias_initializer": {"config": {}, "class_name": "Zeros"}, "kernel_constraint": null}, "class_name": "Conv2D", "inbound_nodes": [[["activation_1", 0, 0, {}]]]}, {"name": "batch_normalization_2", "config": {"name": "batch_normalization_2", "epsilon": 0.001, "moving_mean_initializer": {"config": {}, "class_name": "Zeros"}, "momentum": 0.99, "beta_constraint": null, "gamma_regularizer": null, "gamma_constraint": null, "trainable": true, "beta_regularizer": null, "axis": 3, "gamma_initializer": {"config": {}, "class_name": "Ones"}, "moving_variance_initializer": {"config": {}, "class_name": "Ones"}, "center": true, "scale": true, "beta_initializer": {"config": {}, "class_name": "Zeros"}}, "class_name": "BatchNormalization", "inbound_nodes": [[["conv0_2", 0, 0, {}]]]}, {"name": "activation_2", "config": {"trainable": true, "name": "activation_2", "activation": "relu"}, "class_name": "Activation", "inbound_nodes": [[["batch_normalization_2", 0, 0, {}]]]}, {"name": "max_pooling2d_1", "config": {"name": "max_pooling2d_1", "padding": "valid", "data_format": "channels_last", "strides": [2, 2], "trainable": true, "pool_size": [2, 2]}, "class_name": "MaxPooling2D", "inbound_nodes": [[["activation_2", 0, 0, {}]]]}, {"name": "res_11a", "config": {"bias_constraint": null, "name": "res_11a", "padding": "valid", "data_format": "channels_last", "strides": [1, 1], "filters": 32, "trainable": true, "bias_regularizer": null, "kernel_initializer": {"config": {"scale": 1.0, "distribution": "normal", "seed": null, "mode": "fan_avg"}, "class_name": "VarianceScaling"}, "use_bias": true, "activation": "linear", "kernel_size": [1, 1], "dilation_rate": [1, 1], "activity_regularizer": null, "kernel_regularizer": {"config": {"l2": 0.009999999776482582, "l1": 0.0}, "class_name": "L1L2"}, "bias_initializer": {"config": {}, "class_name": "Zeros"}, "kernel_constraint": null}, "class_name": "Conv2D", "inbound_nodes": [[["max_pooling2d_1", 0, 0, {}]]]}, {"name": "batch_normalization_3", "config": {"name": "batch_normalization_3", "epsilon": 0.001, "moving_mean_initializer": {"config": {}, "class_name": "Zeros"}, "momentum": 0.99, "beta_constraint": null, "gamma_regularizer": null, "gamma_constraint": null, "trainable": true, "beta_regularizer": null, "axis": 3, "gamma_initializer": {"config": {}, "class_name": "Ones"}, "moving_variance_initializer": {"config": {}, "class_name": "Ones"}, "center": true, "scale": true, "beta_initializer": {"config": {}, "class_name": "Zeros"}}, "class_name": "BatchNormalization", "inbound_nodes": [[["res_11a", 0, 0, {}]]]}, {"name": "activation_3", "config": {"trainable": true, "name": "activation_3", "activation": "relu"}, "class_name": "Activation", "inbound_nodes": [[["batch_normalization_3", 0, 0, {}]]]}, {"name": "res_11b", "config": {"bias_constraint": null, "name": "res_11b", "padding": "same", "data_format": "channels_last", "strides": [1, 1], "filters": 32, "trainable": true, "bias_regularizer": null, "kernel_initializer": {"config": {"scale": 1.0, "distribution": "normal", "seed": null, "mode": "fan_avg"}, "class_name": "VarianceScaling"}, "use_bias": true, "activation": "linear", "kernel_size": [3, 3], "dilation_rate": [1, 1], "activity_regularizer": null, "kernel_regularizer": {"config": {"l2": 0.009999999776482582, "l1": 0.0}, "class_name": "L1L2"}, "bias_initializer": {"config": {}, "class_name": "Zeros"}, "kernel_constraint": null}, "class_name": "Conv2D", "inbound_nodes": [[["activation_3", 0, 0, {}]]]}, {"name": "batch_normalization_4", "config": {"name": "batch_normalization_4", "epsilon": 0.001, "moving_mean_initializer": {"config": {}, "class_name": "Zeros"}, "momentum": 0.99, "beta_constraint": null, "gamma_regularizer": null, "gamma_constraint": null, "trainable": true, "beta_regularizer": null, "axis": 3, "gamma_initializer": {"config": {}, "class_name": "Ones"}, "moving_variance_initializer": {"config": {}, "class_name": "Ones"}, "center": true, "scale": true, "beta_initializer": {"config": {}, "class_name": "Zeros"}}, "class_name": "BatchNormalization", "inbound_nodes": [[["res_11b", 0, 0, {}]]]}, {"name": "activation_4", "config": {"trainable": true, "name": "activation_4", "activation": "relu"}, "class_name": "Activation", "inbound_nodes": [[["batch_normalization_4", 0, 0, {}]]]}, {"name": "res_11c", "config": {"bias_constraint": null, "name": "res_11c", "padding": "valid", "data_format": "channels_last", "strides": [1, 1], "filters": 128, "trainable": true, "bias_regularizer": null, "kernel_initializer": {"config": {"scale": 1.0, "distribution": "normal", "seed": null, "mode": "fan_avg"}, "class_name": "VarianceScaling"}, "use_bias": true, "activation": "linear", "kernel_size": [1, 1], "dilation_rate": [1, 1], "activity_regularizer": null, "kernel_regularizer": {"config": {"l2": 0.009999999776482582, "l1": 0.0}, "class_name": "L1L2"}, "bias_initializer": {"config": {}, "class_name": "Zeros"}, "kernel_constraint": null}, "class_name": "Conv2D", "inbound_nodes": [[["activation_4", 0, 0, {}]]]}, {"name": "batch_normalization_5", "config": {"name": "batch_normalization_5", "epsilon": 0.001, "moving_mean_initializer": {"config": {}, "class_name": "Zeros"}, "momentum": 0.99, "beta_constraint": null, "gamma_regularizer": null, "gamma_constraint": null, "trainable": true, "beta_regularizer": null, "axis": 3, "gamma_initializer": {"config": {}, "class_name": "Ones"}, "moving_variance_initializer": {"config": {}, "class_name": "Ones"}, "center": true, "scale": true, "beta_initializer": {"config": {}, "class_name": "Zeros"}}, "class_name": "BatchNormalization", "inbound_nodes": [[["res_11c", 0, 0, {}]]]}, {"name": "res_11s", "config": {"bias_constraint": null, "name": "res_11s", "padding": "valid", "data_format": "channels_last", "strides": [1, 1], "filters": 128, "trainable": true, "bias_regularizer": null, "kernel_initializer": {"config": {"scale": 1.0, "distribution": "normal", "seed": null, "mode": "fan_avg"}, "class_name": "VarianceScaling"}, "use_bias": true, "activation": "linear", "kernel_size": [1, 1], "dilation_rate": [1, 1], "activity_regularizer": null, "kernel_regularizer": {"config": {"l2": 0.009999999776482582, "l1": 0.0}, "class_name": "L1L2"}, "bias_initializer": {"config": {}, "class_name": "Zeros"}, "kernel_constraint": null}, "class_name": "Conv2D", "inbound_nodes": [[["max_pooling2d_1", 0, 0, {}]]]}, {"name": "add_1", "config": {"trainable": true, "name": "add_1"}, "class_name": "Add", "inbound_nodes": [[["batch_normalization_5", 0, 0, {}], ["res_11s", 0, 0, {}]]]}, {"name": "activation_5", "config": {"trainable": true, "name": "activation_5", "activation": "relu"}, "class_name": "Activation", "inbound_nodes": [[["add_1", 0, 0, {}]]]}, {"name": "conv2_1", "config": {"bias_constraint": null, "name": "conv2_1", "padding": "same", "data_format": "channels_last", "strides": [1, 1], "filters": 64, "trainable": true, "bias_regularizer": null, "kernel_initializer": {"config": {"scale": 1.0, "distribution": "normal", "seed": null, "mode": "fan_avg"}, "class_name": "VarianceScaling"}, "use_bias": true, "activation": "linear", "kernel_size": [3, 3], "dilation_rate": [1, 1], "activity_regularizer": null, "kernel_regularizer": {"config": {"l2": 0.009999999776482582, "l1": 0.0}, "class_name": "L1L2"}, "bias_initializer": {"config": {}, "class_name": "Zeros"}, "kernel_constraint": null}, "class_name": "Conv2D", "inbound_nodes": [[["activation_5", 0, 0, {}]]]}, {"name": "batch_normalization_6", "config": {"name": "batch_normalization_6", "epsilon": 0.001, "moving_mean_initializer": {"config": {}, "class_name": "Zeros"}, "momentum": 0.99, "beta_constraint": null, "gamma_regularizer": null, "gamma_constraint": null, "trainable": true, "beta_regularizer": null, "axis": 3, "gamma_initializer": {"config": {}, "class_name": "Ones"}, "moving_variance_initializer": {"config": {}, "class_name": "Ones"}, "center": true, "scale": true, "beta_initializer": {"config": {}, "class_name": "Zeros"}}, "class_name": "BatchNormalization", "inbound_nodes": [[["conv2_1", 0, 0, {}]]]}, {"name": "activation_6", "config": {"trainable": true, "name": "activation_6", "activation": "relu"}, "class_name": "Activation", "inbound_nodes": [[["batch_normalization_6", 0, 0, {}]]]}, {"name": "conv2_2", "config": {"bias_constraint": null, "name": "conv2_2", "padding": "same", "data_format": "channels_last", "strides": [1, 1], "filters": 64, "trainable": true, "bias_regularizer": null, "kernel_initializer": {"config": {"scale": 1.0, "distribution": "normal", "seed": null, "mode": "fan_avg"}, "class_name": "VarianceScaling"}, "use_bias": true, "activation": "linear", "kernel_size": [3, 3], "dilation_rate": [1, 1], "activity_regularizer": null, "kernel_regularizer": {"config": {"l2": 0.009999999776482582, "l1": 0.0}, "class_name": "L1L2"}, "bias_initializer": {"config": {}, "class_name": "Zeros"}, "kernel_constraint": null}, "class_name": "Conv2D", "inbound_nodes": [[["activation_6", 0, 0, {}]]]}, {"name": "batch_normalization_7", "config": {"name": "batch_normalization_7", "epsilon": 0.001, "moving_mean_initializer": {"config": {}, "class_name": "Zeros"}, "momentum": 0.99, "beta_constraint": null, "gamma_regularizer": null, "gamma_constraint": null, "trainable": true, "beta_regularizer": null, "axis": 3, "gamma_initializer": {"config": {}, "class_name": "Ones"}, "moving_variance_initializer": {"config": {}, "class_name": "Ones"}, "center": true, "scale": true, "beta_initializer": {"config": {}, "class_name": "Zeros"}}, "class_name": "BatchNormalization", "inbound_nodes": [[["conv2_2", 0, 0, {}]]]}, {"name": "activation_7", "config": {"trainable": true, "name": "activation_7", "activation": "relu"}, "class_name": "Activation", "inbound_nodes": [[["batch_normalization_7", 0, 0, {}]]]}, {"name": "max_pooling2d_2", "config": {"name": "max_pooling2d_2", "padding": "valid", "data_format": "channels_last", "strides": [2, 2], "trainable": true, "pool_size": [2, 2]}, "class_name": "MaxPooling2D", "inbound_nodes": [[["activation_7", 0, 0, {}]]]}, {"name": "res_21a", "config": {"bias_constraint": null, "name": "res_21a", "padding": "valid", "data_format": "channels_last", "strides": [1, 1], "filters": 64, "trainable": true, "bias_regularizer": null, "kernel_initializer": {"config": {"scale": 1.0, "distribution": "normal", "seed": null, "mode": "fan_avg"}, "class_name": "VarianceScaling"}, "use_bias": true, "activation": "linear", "kernel_size": [1, 1], "dilation_rate": [1, 1], "activity_regularizer": null, "kernel_regularizer": {"config": {"l2": 0.009999999776482582, "l1": 0.0}, "class_name": "L1L2"}, "bias_initializer": {"config": {}, "class_name": "Zeros"}, "kernel_constraint": null}, "class_name": "Conv2D", "inbound_nodes": [[["max_pooling2d_2", 0, 0, {}]]]}, {"name": "batch_normalization_8", "config": {"name": "batch_normalization_8", "epsilon": 0.001, "moving_mean_initializer": {"config": {}, "class_name": "Zeros"}, "momentum": 0.99, "beta_constraint": null, "gamma_regularizer": null, "gamma_constraint": null, "trainable": true, "beta_regularizer": null, "axis": 3, "gamma_initializer": {"config": {}, "class_name": "Ones"}, "moving_variance_initializer": {"config": {}, "class_name": "Ones"}, "center": true, "scale": true, "beta_initializer": {"config": {}, "class_name": "Zeros"}}, "class_name": "BatchNormalization", "inbound_nodes": [[["res_21a", 0, 0, {}]]]}, {"name": "activation_8", "config": {"trainable": true, "name": "activation_8", "activation": "relu"}, "class_name": "Activation", "inbound_nodes": [[["batch_normalization_8", 0, 0, {}]]]}, {"name": "res_21b", "config": {"bias_constraint": null, "name": "res_21b", "padding": "same", "data_format": "channels_last", "strides": [1, 1], "filters": 64, "trainable": true, "bias_regularizer": null, "kernel_initializer": {"config": {"scale": 1.0, "distribution": "normal", "seed": null, "mode": "fan_avg"}, "class_name": "VarianceScaling"}, "use_bias": true, "activation": "linear", "kernel_size": [3, 3], "dilation_rate": [1, 1], "activity_regularizer": null, "kernel_regularizer": {"config": {"l2": 0.009999999776482582, "l1": 0.0}, "class_name": "L1L2"}, "bias_initializer": {"config": {}, "class_name": "Zeros"}, "kernel_constraint": null}, "class_name": "Conv2D", "inbound_nodes": [[["activation_8", 0, 0, {}]]]}, {"name": "batch_normalization_9", "config": {"name": "batch_normalization_9", "epsilon": 0.001, "moving_mean_initializer": {"config": {}, "class_name": "Zeros"}, "momentum": 0.99, "beta_constraint": null, "gamma_regularizer": null, "gamma_constraint": null, "trainable": true, "beta_regularizer": null, "axis": 3, "gamma_initializer": {"config": {}, "class_name": "Ones"}, "moving_variance_initializer": {"config": {}, "class_name": "Ones"}, "center": true, "scale": true, "beta_initializer": {"config": {}, "class_name": "Zeros"}}, "class_name": "BatchNormalization", "inbound_nodes": [[["res_21b", 0, 0, {}]]]}, {"name": "activation_9", "config": {"trainable": true, "name": "activation_9", "activation": "relu"}, "class_name": "Activation", "inbound_nodes": [[["batch_normalization_9", 0, 0, {}]]]}, {"name": "res_21c", "config": {"bias_constraint": null, "name": "res_21c", "padding": "valid", "data_format": "channels_last", "strides": [1, 1], "filters": 256, "trainable": true, "bias_regularizer": null, "kernel_initializer": {"config": {"scale": 1.0, "distribution": "normal", "seed": null, "mode": "fan_avg"}, "class_name": "VarianceScaling"}, "use_bias": true, "activation": "linear", "kernel_size": [1, 1], "dilation_rate": [1, 1], "activity_regularizer": null, "kernel_regularizer": {"config": {"l2": 0.009999999776482582, "l1": 0.0}, "class_name": "L1L2"}, "bias_initializer": {"config": {}, "class_name": "Zeros"}, "kernel_constraint": null}, "class_name": "Conv2D", "inbound_nodes": [[["activation_9", 0, 0, {}]]]}, {"name": "batch_normalization_10", "config": {"name": "batch_normalization_10", "epsilon": 0.001, "moving_mean_initializer": {"config": {}, "class_name": "Zeros"}, "momentum": 0.99, "beta_constraint": null, "gamma_regularizer": null, "gamma_constraint": null, "trainable": true, "beta_regularizer": null, "axis": 3, "gamma_initializer": {"config": {}, "class_name": "Ones"}, "moving_variance_initializer": {"config": {}, "class_name": "Ones"}, "center": true, "scale": true, "beta_initializer": {"config": {}, "class_name": "Zeros"}}, "class_name": "BatchNormalization", "inbound_nodes": [[["res_21c", 0, 0, {}]]]}, {"name": "res_21s", "config": {"bias_constraint": null, "name": "res_21s", "padding": "valid", "data_format": "channels_last", "strides": [1, 1], "filters": 256, "trainable": true, "bias_regularizer": null, "kernel_initializer": {"config": {"scale": 1.0, "distribution": "normal", "seed": null, "mode": "fan_avg"}, "class_name": "VarianceScaling"}, "use_bias": true, "activation": "linear", "kernel_size": [1, 1], "dilation_rate": [1, 1], "activity_regularizer": null, "kernel_regularizer": {"config": {"l2": 0.009999999776482582, "l1": 0.0}, "class_name": "L1L2"}, "bias_initializer": {"config": {}, "class_name": "Zeros"}, "kernel_constraint": null}, "class_name": "Conv2D", "inbound_nodes": [[["max_pooling2d_2", 0, 0, {}]]]}, {"name": "add_2", "config": {"trainable": true, "name": "add_2"}, "class_name": "Add", "inbound_nodes": [[["batch_normalization_10", 0, 0, {}], ["res_21s", 0, 0, {}]]]}, {"name": "activation_10", "config": {"trainable": true, "name": "activation_10", "activation": "relu"}, "class_name": "Activation", "inbound_nodes": [[["add_2", 0, 0, {}]]]}, {"name": "conv3_1", "config": {"bias_constraint": null, "name": "conv3_1", "padding": "same", "data_format": "channels_last", "strides": [1, 1], "filters": 128, "trainable": true, "bias_regularizer": null, "kernel_initializer": {"config": {"scale": 1.0, "distribution": "normal", "seed": null, "mode": "fan_avg"}, "class_name": "VarianceScaling"}, "use_bias": true, "activation": "linear", "kernel_size": [3, 3], "dilation_rate": [1, 1], "activity_regularizer": null, "kernel_regularizer": {"config": {"l2": 0.009999999776482582, "l1": 0.0}, "class_name": "L1L2"}, "bias_initializer": {"config": {}, "class_name": "Zeros"}, "kernel_constraint": null}, "class_name": "Conv2D", "inbound_nodes": [[["activation_10", 0, 0, {}]]]}, {"name": "batch_normalization_11", "config": {"name": "batch_normalization_11", "epsilon": 0.001, "moving_mean_initializer": {"config": {}, "class_name": "Zeros"}, "momentum": 0.99, "beta_constraint": null, "gamma_regularizer": null, "gamma_constraint": null, "trainable": true, "beta_regularizer": null, "axis": 3, "gamma_initializer": {"config": {}, "class_name": "Ones"}, "moving_variance_initializer": {"config": {}, "class_name": "Ones"}, "center": true, "scale": true, "beta_initializer": {"config": {}, "class_name": "Zeros"}}, "class_name": "BatchNormalization", "inbound_nodes": [[["conv3_1", 0, 0, {}]]]}, {"name": "activation_11", "config": {"trainable": true, "name": "activation_11", "activation": "relu"}, "class_name": "Activation", "inbound_nodes": [[["batch_normalization_11", 0, 0, {}]]]}, {"name": "conv3_2", "config": {"bias_constraint": null, "name": "conv3_2", "padding": "same", "data_format": "channels_last", "strides": [1, 1], "filters": 128, "trainable": true, "bias_regularizer": null, "kernel_initializer": {"config": {"scale": 1.0, "distribution": "normal", "seed": null, "mode": "fan_avg"}, "class_name": "VarianceScaling"}, "use_bias": true, "activation": "linear", "kernel_size": [3, 3], "dilation_rate": [1, 1], "activity_regularizer": null, "kernel_regularizer": {"config": {"l2": 0.009999999776482582, "l1": 0.0}, "class_name": "L1L2"}, "bias_initializer": {"config": {}, "class_name": "Zeros"}, "kernel_constraint": null}, "class_name": "Conv2D", "inbound_nodes": [[["activation_11", 0, 0, {}]]]}, {"name": "batch_normalization_12", "config": {"name": "batch_normalization_12", "epsilon": 0.001, "moving_mean_initializer": {"config": {}, "class_name": "Zeros"}, "momentum": 0.99, "beta_constraint": null, "gamma_regularizer": null, "gamma_constraint": null, "trainable": true, "beta_regularizer": null, "axis": 3, "gamma_initializer": {"config": {}, "class_name": "Ones"}, "moving_variance_initializer": {"config": {}, "class_name": "Ones"}, "center": true, "scale": true, "beta_initializer": {"config": {}, "class_name": "Zeros"}}, "class_name": "BatchNormalization", "inbound_nodes": [[["conv3_2", 0, 0, {}]]]}, {"name": "activation_12", "config": {"trainable": true, "name": "activation_12", "activation": "relu"}, "class_name": "Activation", "inbound_nodes": [[["batch_normalization_12", 0, 0, {}]]]}, {"name": "max_pooling2d_3", "config": {"name": "max_pooling2d_3", "padding": "valid", "data_format": "channels_last", "strides": [2, 2], "trainable": true, "pool_size": [2, 2]}, "class_name": "MaxPooling2D", "inbound_nodes": [[["activation_12", 0, 0, {}]]]}, {"name": "flatten_1", "config": {"trainable": true, "name": "flatten_1", "data_format": "channels_last"}, "class_name": "Flatten", "inbound_nodes": [[["max_pooling2d_3", 0, 0, {}]]]}, {"name": "fc1", "config": {"bias_constraint": null, "name": "fc1", "bias_regularizer": null, "activation": "relu", "kernel_initializer": {"config": {"scale": 1.0, "distribution": "normal", "seed": null, "mode": "fan_avg"}, "class_name": "VarianceScaling"}, "use_bias": true, "trainable": true, "activity_regularizer": null, "units": 64, "kernel_regularizer": {"config": {"l2": 0.009999999776482582, "l1": 0.0}, "class_name": "L1L2"}, "bias_initializer": {"config": {}, "class_name": "Zeros"}, "kernel_constraint": null}, "class_name": "Dense", "inbound_nodes": [[["flatten_1", 0, 0, {}]]]}, {"name": "dropout_1", "config": {"trainable": true, "name": "dropout_1", "rate": 0.2, "noise_shape": null, "seed": null}, "class_name": "Dropout", "inbound_nodes": [[["fc1", 0, 0, {}]]]}, {"name": "fc2", "config": {"bias_constraint": null, "name": "fc2", "bias_regularizer": null, "activation": "relu", "kernel_initializer": {"config": {"scale": 1.0, "distribution": "normal", "seed": null, "mode": "fan_avg"}, "class_name": "VarianceScaling"}, "use_bias": true, "trainable": true, "activity_regularizer": null, "units": 64, "kernel_regularizer": {"config": {"l2": 0.009999999776482582, "l1": 0.0}, "class_name": "L1L2"}, "bias_initializer": {"config": {}, "class_name": "Zeros"}, "kernel_constraint": null}, "class_name": "Dense", "inbound_nodes": [[["dropout_1", 0, 0, {}]]]}, {"name": "dropout_2", "config": {"trainable": true, "name": "dropout_2", "rate": 0.2, "noise_shape": null, "seed": null}, "class_name": "Dropout", "inbound_nodes": [[["fc2", 0, 0, {}]]]}, {"name": "fc_final", "config": {"bias_constraint": null, "name": "fc_final", "bias_regularizer": null, "activation": "softmax", "kernel_initializer": {"config": {"scale": 1.0, "distribution": "normal", "seed": null, "mode": "fan_avg"}, "class_name": "VarianceScaling"}, "use_bias": true, "trainable": true, "activity_regularizer": null, "units": 10, "kernel_regularizer": {"config": {"l2": 0.009999999776482582, "l1": 0.0}, "class_name": "L1L2"}, "bias_initializer": {"config": {}, "class_name": "Zeros"}, "kernel_constraint": null}, "class_name": "Dense", "inbound_nodes": [[["dropout_2", 0, 0, {}]]]}]}, "class_name": "Model"}